…
Run info rank: 1: Torch version: 2.1.2+cu121 | Device: cuda:0 | Host: cpu
Loading data
Number of samples: train, 580; test, 21.
-- procs    = 2
-- channels = 3
-- Tf       = 1.0
-- steps    = 32
-- max_levels     = 3
-- max_bwd_iters  = 1
-- max_fwd_iters  = 2
-- cfactor        = 4
-- fine fcf       = False
-- skip down      = True

Model: ParallelNet(
  (parallel_nn): LayerParallel(
    parallel rank = 0 of 2
    (local_layers): Sequential(
      (0): ODEBlock(
        (layer): StepLayer_enc(
          (F): TransformerEncoderResidualLayer(
            (self_attn): SelfAttention(
              (attn): MultiHeadAttention(
                (k_proj): Linear(in_features=512, out_features=512, bias=True)
                (v_proj): Linear(in_features=512, out_features=512, bias=True)
                (q_proj): Linear(in_features=512, out_features=512, bias=True)
                (out_proj): Linear(in_features=512, out_features=512, bias=True)
              )
            )
            (mlp): MLP(
              (fc1): Linear(in_features=512, out_features=2048, bias=True)
              (fc2): Linear(in_features=2048, out_features=512, bias=True)
              (activation_fn): SiLU()
            )
            (self_attn_layer_norm): LayerNorm((512,), eps=1e-05, elementwise_affine=True)
            (final_layer_norm): LayerNorm((512,), eps=1e-05, elementwise_affine=True)
          )
        )
      )
      (1): ODEBlock(
        (layer): StepLayer_enc(
          (F): TransformerEncoderResidualLayer(
            (self_attn): SelfAttention(
              (attn): MultiHeadAttention(
                (k_proj): Linear(in_features=512, out_features=512, bias=True)
                (v_proj): Linear(in_features=512, out_features=512, bias=True)
                (q_proj): Linear(in_features=512, out_features=512, bias=True)
                (out_proj): Linear(in_features=512, out_features=512, bias=True)
              )
            )
            (mlp): MLP(
              (fc1): Linear(in_features=512, out_features=2048, bias=True)
              (fc2): Linear(in_features=2048, out_features=512, bias=True)
              (activation_fn): SiLU()
            )
            (self_attn_layer_norm): LayerNorm((512,), eps=1e-05, elementwise_affine=True)
            (final_layer_norm): LayerNorm((512,), eps=1e-05, elementwise_affine=True)
          )
        )
      )
      (2): ODEBlock(
        (layer): StepLayer_enc(
          (F): TransformerEncoderResidualLayer(
            (self_attn): SelfAttention(
              (attn): MultiHeadAttention(
                (k_proj): Linear(in_features=512, out_features=512, bias=True)
                (v_proj): Linear(in_features=512, out_features=512, bias=True)
                (q_proj): Linear(in_features=512, out_features=512, bias=True)
                (out_proj): Linear(in_features=512, out_features=512, bias=True)
              )
            )
            (mlp): MLP(
              (fc1): Linear(in_features=512, out_features=2048, bias=True)
              (fc2): Linear(in_features=2048, out_features=512, bias=True)
              (activation_fn): SiLU()
            )
            (self_attn_layer_norm): LayerNorm((512,), eps=1e-05, elementwise_affine=True)
            (final_layer_norm): LayerNorm((512,), eps=1e-05, elementwise_affine=True)
          )
        )
      )
      (3): ODEBlock(
        (layer): StepLayer_enc(
          (F): TransformerEncoderResidualLayer(
            (self_attn): SelfAttention(
              (attn): MultiHeadAttention(
                (k_proj): Linear(in_features=512, out_features=512, bias=True)
                (v_proj): Linear(in_features=512, out_features=512, bias=True)
                (q_proj): Linear(in_features=512, out_features=512, bias=True)
                (out_proj): Linear(in_features=512, out_features=512, bias=True)
              )
            )
            (mlp): MLP(
              (fc1): Linear(in_features=512, out_features=2048, bias=True)
              (fc2): Linear(in_features=2048, out_features=512, bias=True)
              (activation_fn): SiLU()
            )
            (self_attn_layer_norm): LayerNorm((512,), eps=1e-05, elementwise_affine=True)
            (final_layer_norm): LayerNorm((512,), eps=1e-05, elementwise_affine=True)
          )
        )
      )
      (4): ODEBlock(
        (layer): StepLayer_enc(
          (F): TransformerEncoderResidualLayer(
            (self_attn): SelfAttention(
              (attn): MultiHeadAttention(
                (k_proj): Linear(in_features=512, out_features=512, bias=True)
                (v_proj): Linear(in_features=512, out_features=512, bias=True)
                (q_proj): Linear(in_features=512, out_features=512, bias=True)
                (out_proj): Linear(in_features=512, out_features=512, bias=True)
              )
            )
            (mlp): MLP(
              (fc1): Linear(in_features=512, out_features=2048, bias=True)
              (fc2): Linear(in_features=2048, out_features=512, bias=True)
              (activation_fn): SiLU()
            )
            (self_attn_layer_norm): LayerNorm((512,), eps=1e-05, elementwise_affine=True)
            (final_layer_norm): LayerNorm((512,), eps=1e-05, elementwise_affine=True)
          )
        )
      )
      (5): ODEBlock(
        (layer): StepLayer_enc(
          (F): TransformerEncoderResidualLayer(
            (self_attn): SelfAttention(
              (attn): MultiHeadAttention(
                (k_proj): Linear(in_features=512, out_features=512, bias=True)
                (v_proj): Linear(in_features=512, out_features=512, bias=True)
                (q_proj): Linear(in_features=512, out_features=512, bias=True)
                (out_proj): Linear(in_features=512, out_features=512, bias=True)
              )
            )
            (mlp): MLP(
              (fc1): Linear(in_features=512, out_features=2048, bias=True)
              (fc2): Linear(in_features=2048, out_features=512, bias=True)
              (activation_fn): SiLU()
            )
            (self_attn_layer_norm): LayerNorm((512,), eps=1e-05, elementwise_affine=True)
            (final_layer_norm): LayerNorm((512,), eps=1e-05, elementwise_affine=True)
          )
        )
      )
      (6): ODEBlock(
        (layer): StepLayer_enc(
          (F): TransformerEncoderResidualLayer(
            (self_attn): SelfAttention(
              (attn): MultiHeadAttention(
                (k_proj): Linear(in_features=512, out_features=512, bias=True)
                (v_proj): Linear(in_features=512, out_features=512, bias=True)
                (q_proj): Linear(in_features=512, out_features=512, bias=True)
                (out_proj): Linear(in_features=512, out_features=512, bias=True)
              )
            )
            (mlp): MLP(
              (fc1): Linear(in_features=512, out_features=2048, bias=True)
              (fc2): Linear(in_features=2048, out_features=512, bias=True)
              (activation_fn): SiLU()
            )
            (self_attn_layer_norm): LayerNorm((512,), eps=1e-05, elementwise_affine=True)
            (final_layer_norm): LayerNorm((512,), eps=1e-05, elementwise_affine=True)
          )
        )
      )
      (7): ODEBlock(
        (layer): StepLayer_enc(
          (F): TransformerEncoderResidualLayer(
            (self_attn): SelfAttention(
              (attn): MultiHeadAttention(
                (k_proj): Linear(in_features=512, out_features=512, bias=True)
                (v_proj): Linear(in_features=512, out_features=512, bias=True)
                (q_proj): Linear(in_features=512, out_features=512, bias=True)
                (out_proj): Linear(in_features=512, out_features=512, bias=True)
              )
            )
            (mlp): MLP(
              (fc1): Linear(in_features=512, out_features=2048, bias=True)
              (fc2): Linear(in_features=2048, out_features=512, bias=True)
              (activation_fn): SiLU()
            )
            (self_attn_layer_norm): LayerNorm((512,), eps=1e-05, elementwise_affine=True)
            (final_layer_norm): LayerNorm((512,), eps=1e-05, elementwise_affine=True)
          )
        )
      )
      (8): ODEBlock(
        (layer): StepLayer_enc(
          (F): TransformerEncoderResidualLayer(
            (self_attn): SelfAttention(
              (attn): MultiHeadAttention(
                (k_proj): Linear(in_features=512, out_features=512, bias=True)
                (v_proj): Linear(in_features=512, out_features=512, bias=True)
                (q_proj): Linear(in_features=512, out_features=512, bias=True)
                (out_proj): Linear(in_features=512, out_features=512, bias=True)
              )
            )
            (mlp): MLP(
              (fc1): Linear(in_features=512, out_features=2048, bias=True)
              (fc2): Linear(in_features=2048, out_features=512, bias=True)
              (activation_fn): SiLU()
            )
            (self_attn_layer_norm): LayerNorm((512,), eps=1e-05, elementwise_affine=True)
            (final_layer_norm): LayerNorm((512,), eps=1e-05, elementwise_affine=True)
          )
        )
      )
      (9): ODEBlock(
        (layer): StepLayer_enc(
          (F): TransformerEncoderResidualLayer(
            (self_attn): SelfAttention(
              (attn): MultiHeadAttention(
                (k_proj): Linear(in_features=512, out_features=512, bias=True)
                (v_proj): Linear(in_features=512, out_features=512, bias=True)
                (q_proj): Linear(in_features=512, out_features=512, bias=True)
                (out_proj): Linear(in_features=512, out_features=512, bias=True)
              )
            )
            (mlp): MLP(
              (fc1): Linear(in_features=512, out_features=2048, bias=True)
              (fc2): Linear(in_features=2048, out_features=512, bias=True)
              (activation_fn): SiLU()
            )
            (self_attn_layer_norm): LayerNorm((512,), eps=1e-05, elementwise_affine=True)
            (final_layer_norm): LayerNorm((512,), eps=1e-05, elementwise_affine=True)
          )
        )
      )
      (10): ODEBlock(
        (layer): StepLayer_enc(
          (F): TransformerEncoderResidualLayer(
            (self_attn): SelfAttention(
              (attn): MultiHeadAttention(
                (k_proj): Linear(in_features=512, out_features=512, bias=True)
                (v_proj): Linear(in_features=512, out_features=512, bias=True)
                (q_proj): Linear(in_features=512, out_features=512, bias=True)
                (out_proj): Linear(in_features=512, out_features=512, bias=True)
              )
            )
            (mlp): MLP(
              (fc1): Linear(in_features=512, out_features=2048, bias=True)
              (fc2): Linear(in_features=2048, out_features=512, bias=True)
              (activation_fn): SiLU()
            )
            (self_attn_layer_norm): LayerNorm((512,), eps=1e-05, elementwise_affine=True)
            (final_layer_norm): LayerNorm((512,), eps=1e-05, elementwise_affine=True)
          )
        )
      )
      (11): ODEBlock(
        (layer): StepLayer_enc(
          (F): TransformerEncoderResidualLayer(
            (self_attn): SelfAttention(
              (attn): MultiHeadAttention(
                (k_proj): Linear(in_features=512, out_features=512, bias=True)
                (v_proj): Linear(in_features=512, out_features=512, bias=True)
                (q_proj): Linear(in_features=512, out_features=512, bias=True)
                (out_proj): Linear(in_features=512, out_features=512, bias=True)
              )
            )
            (mlp): MLP(
              (fc1): Linear(in_features=512, out_features=2048, bias=True)
              (fc2): Linear(in_features=2048, out_features=512, bias=True)
              (activation_fn): SiLU()
            )
            (self_attn_layer_norm): LayerNorm((512,), eps=1e-05, elementwise_affine=True)
            (final_layer_norm): LayerNorm((512,), eps=1e-05, elementwise_affine=True)
          )
        )
      )
      (12): ODEBlock(
        (layer): StepLayer_enc(
          (F): TransformerEncoderResidualLayer(
            (self_attn): SelfAttention(
              (attn): MultiHeadAttention(
                (k_proj): Linear(in_features=512, out_features=512, bias=True)
                (v_proj): Linear(in_features=512, out_features=512, bias=True)
                (q_proj): Linear(in_features=512, out_features=512, bias=True)
                (out_proj): Linear(in_features=512, out_features=512, bias=True)
              )
            )
            (mlp): MLP(
              (fc1): Linear(in_features=512, out_features=2048, bias=True)
              (fc2): Linear(in_features=2048, out_features=512, bias=True)
              (activation_fn): SiLU()
            )
            (self_attn_layer_norm): LayerNorm((512,), eps=1e-05, elementwise_affine=True)
            (final_layer_norm): LayerNorm((512,), eps=1e-05, elementwise_affine=True)
          )
        )
      )
      (13): ODEBlock(
        (layer): StepLayer_enc(
          (F): TransformerEncoderResidualLayer(
            (self_attn): SelfAttention(
              (attn): MultiHeadAttention(
                (k_proj): Linear(in_features=512, out_features=512, bias=True)
                (v_proj): Linear(in_features=512, out_features=512, bias=True)
                (q_proj): Linear(in_features=512, out_features=512, bias=True)
                (out_proj): Linear(in_features=512, out_features=512, bias=True)
              )
            )
            (mlp): MLP(
              (fc1): Linear(in_features=512, out_features=2048, bias=True)
              (fc2): Linear(in_features=2048, out_features=512, bias=True)
              (activation_fn): SiLU()
            )
            (self_attn_layer_norm): LayerNorm((512,), eps=1e-05, elementwise_affine=True)
            (final_layer_norm): LayerNorm((512,), eps=1e-05, elementwise_affine=True)
          )
        )
      )
      (14): ODEBlock(
        (layer): StepLayer_enc(
          (F): TransformerEncoderResidualLayer(
            (self_attn): SelfAttention(
              (attn): MultiHeadAttention(
                (k_proj): Linear(in_features=512, out_features=512, bias=True)
                (v_proj): Linear(in_features=512, out_features=512, bias=True)
                (q_proj): Linear(in_features=512, out_features=512, bias=True)
                (out_proj): Linear(in_features=512, out_features=512, bias=True)
              )
            )
            (mlp): MLP(
              (fc1): Linear(in_features=512, out_features=2048, bias=True)
              (fc2): Linear(in_features=2048, out_features=512, bias=True)
              (activation_fn): SiLU()
            )
            (self_attn_layer_norm): LayerNorm((512,), eps=1e-05, elementwise_affine=True)
            (final_layer_norm): LayerNorm((512,), eps=1e-05, elementwise_affine=True)
          )
        )
      )
      (15): ODEBlock(
        (layer): StepLayer_enc(
          (F): TransformerEncoderResidualLayer(
            (self_attn): SelfAttention(
              (attn): MultiHeadAttention(
                (k_proj): Linear(in_features=512, out_features=512, bias=True)
                (v_proj): Linear(in_features=512, out_features=512, bias=True)
                (q_proj): Linear(in_features=512, out_features=512, bias=True)
                (out_proj): Linear(in_features=512, out_features=512, bias=True)
              )
            )
            (mlp): MLP(
              (fc1): Linear(in_features=512, out_features=2048, bias=True)
              (fc2): Linear(in_features=2048, out_features=512, bias=True)
              (activation_fn): SiLU()
            )
            (self_attn_layer_norm): LayerNorm((512,), eps=1e-05, elementwise_affine=True)
            (final_layer_norm): LayerNorm((512,), eps=1e-05, elementwise_affine=True)
          )
        )
      )
      (16): ODEBlock(
        (layer): StepLayer_enc(
          (F): TransformerEncoderResidualLayer(
            (self_attn): SelfAttention(
              (attn): MultiHeadAttention(
                (k_proj): Linear(in_features=512, out_features=512, bias=True)
                (v_proj): Linear(in_features=512, out_features=512, bias=True)
                (q_proj): Linear(in_features=512, out_features=512, bias=True)
                (out_proj): Linear(in_features=512, out_features=512, bias=True)
              )
            )
            (mlp): MLP(
              (fc1): Linear(in_features=512, out_features=2048, bias=True)
              (fc2): Linear(in_features=2048, out_features=512, bias=True)
              (activation_fn): SiLU()
            )
            (self_attn_layer_norm): LayerNorm((512,), eps=1e-05, elementwise_affine=True)
            (final_layer_norm): LayerNorm((512,), eps=1e-05, elementwise_affine=True)
          )
        )
      )
      (17): ODEBlock(
        (layer): StepLayer_enc(
          (F): TransformerEncoderResidualLayer(
            (self_attn): SelfAttention(
              (attn): MultiHeadAttention(
                (k_proj): Linear(in_features=512, out_features=512, bias=True)
                (v_proj): Linear(in_features=512, out_features=512, bias=True)
                (q_proj): Linear(in_features=512, out_features=512, bias=True)
                (out_proj): Linear(in_features=512, out_features=512, bias=True)
              )
            )
            (mlp): MLP(
              (fc1): Linear(in_features=512, out_features=2048, bias=True)
              (fc2): Linear(in_features=2048, out_features=512, bias=True)
              (activation_fn): SiLU()
            )
            (self_attn_layer_norm): LayerNorm((512,), eps=1e-05, elementwise_affine=True)
            (final_layer_norm): LayerNorm((512,), eps=1e-05, elementwise_affine=True)
          )
        )
      )
      (18): ODEBlock(
        (layer): StepLayer_enc(
          (F): TransformerEncoderResidualLayer(
            (self_attn): SelfAttention(
              (attn): MultiHeadAttention(
                (k_proj): Linear(in_features=512, out_features=512, bias=True)
                (v_proj): Linear(in_features=512, out_features=512, bias=True)
                (q_proj): Linear(in_features=512, out_features=512, bias=True)
                (out_proj): Linear(in_features=512, out_features=512, bias=True)
              )
            )
            (mlp): MLP(
              (fc1): Linear(in_features=512, out_features=2048, bias=True)
              (fc2): Linear(in_features=2048, out_features=512, bias=True)
              (activation_fn): SiLU()
            )
            (self_attn_layer_norm): LayerNorm((512,), eps=1e-05, elementwise_affine=True)
            (final_layer_norm): LayerNorm((512,), eps=1e-05, elementwise_affine=True)
          )
        )
      )
      (19): ODEBlock(
        (layer): StepLayer_enc(
          (F): TransformerEncoderResidualLayer(
            (self_attn): SelfAttention(
              (attn): MultiHeadAttention(
                (k_proj): Linear(in_features=512, out_features=512, bias=True)
                (v_proj): Linear(in_features=512, out_features=512, bias=True)
                (q_proj): Linear(in_features=512, out_features=512, bias=True)
                (out_proj): Linear(in_features=512, out_features=512, bias=True)
              )
            )
            (mlp): MLP(
              (fc1): Linear(in_features=512, out_features=2048, bias=True)
              (fc2): Linear(in_features=2048, out_features=512, bias=True)
              (activation_fn): SiLU()
            )
            (self_attn_layer_norm): LayerNorm((512,), eps=1e-05, elementwise_affine=True)
            (final_layer_norm): LayerNorm((512,), eps=1e-05, elementwise_affine=True)
          )
        )
      )
      (20): ODEBlock(
        (layer): StepLayer_enc(
          (F): TransformerEncoderResidualLayer(
            (self_attn): SelfAttention(
              (attn): MultiHeadAttention(
                (k_proj): Linear(in_features=512, out_features=512, bias=True)
                (v_proj): Linear(in_features=512, out_features=512, bias=True)
                (q_proj): Linear(in_features=512, out_features=512, bias=True)
                (out_proj): Linear(in_features=512, out_features=512, bias=True)
              )
            )
            (mlp): MLP(
              (fc1): Linear(in_features=512, out_features=2048, bias=True)
              (fc2): Linear(in_features=2048, out_features=512, bias=True)
              (activation_fn): SiLU()
            )
            (self_attn_layer_norm): LayerNorm((512,), eps=1e-05, elementwise_affine=True)
            (final_layer_norm): LayerNorm((512,), eps=1e-05, elementwise_affine=True)
          )
        )
      )
      (21): ODEBlock(
        (layer): StepLayer_enc(
          (F): TransformerEncoderResidualLayer(
            (self_attn): SelfAttention(
              (attn): MultiHeadAttention(
                (k_proj): Linear(in_features=512, out_features=512, bias=True)
                (v_proj): Linear(in_features=512, out_features=512, bias=True)
                (q_proj): Linear(in_features=512, out_features=512, bias=True)
                (out_proj): Linear(in_features=512, out_features=512, bias=True)
              )
            )
            (mlp): MLP(
              (fc1): Linear(in_features=512, out_features=2048, bias=True)
              (fc2): Linear(in_features=2048, out_features=512, bias=True)
              (activation_fn): SiLU()
            )
            (self_attn_layer_norm): LayerNorm((512,), eps=1e-05, elementwise_affine=True)
            (final_layer_norm): LayerNorm((512,), eps=1e-05, elementwise_affine=True)
          )
        )
      )
      (22): ODEBlock(
        (layer): StepLayer_enc(
          (F): TransformerEncoderResidualLayer(
            (self_attn): SelfAttention(
              (attn): MultiHeadAttention(
                (k_proj): Linear(in_features=512, out_features=512, bias=True)
                (v_proj): Linear(in_features=512, out_features=512, bias=True)
                (q_proj): Linear(in_features=512, out_features=512, bias=True)
                (out_proj): Linear(in_features=512, out_features=512, bias=True)
              )
            )
            (mlp): MLP(
              (fc1): Linear(in_features=512, out_features=2048, bias=True)
              (fc2): Linear(in_features=2048, out_features=512, bias=True)
              (activation_fn): SiLU()
            )
            (self_attn_layer_norm): LayerNorm((512,), eps=1e-05, elementwise_affine=True)
            (final_layer_norm): LayerNorm((512,), eps=1e-05, elementwise_affine=True)
          )
        )
      )
      (23): ODEBlock(
        (layer): StepLayer_enc(
          (F): TransformerEncoderResidualLayer(
            (self_attn): SelfAttention(
              (attn): MultiHeadAttention(
                (k_proj): Linear(in_features=512, out_features=512, bias=True)
                (v_proj): Linear(in_features=512, out_features=512, bias=True)
                (q_proj): Linear(in_features=512, out_features=512, bias=True)
                (out_proj): Linear(in_features=512, out_features=512, bias=True)
              )
            )
            (mlp): MLP(
              (fc1): Linear(in_features=512, out_features=2048, bias=True)
              (fc2): Linear(in_features=2048, out_features=512, bias=True)
              (activation_fn): SiLU()
            )
            (self_attn_layer_norm): LayerNorm((512,), eps=1e-05, elementwise_affine=True)
            (final_layer_norm): LayerNorm((512,), eps=1e-05, elementwise_affine=True)
          )
        )
      )
      (24): ODEBlock(
        (layer): StepLayer_enc(
          (F): TransformerEncoderResidualLayer(
            (self_attn): SelfAttention(
              (attn): MultiHeadAttention(
                (k_proj): Linear(in_features=512, out_features=512, bias=True)
                (v_proj): Linear(in_features=512, out_features=512, bias=True)
                (q_proj): Linear(in_features=512, out_features=512, bias=True)
                (out_proj): Linear(in_features=512, out_features=512, bias=True)
              )
            )
            (mlp): MLP(
              (fc1): Linear(in_features=512, out_features=2048, bias=True)
              (fc2): Linear(in_features=2048, out_features=512, bias=True)
              (activation_fn): SiLU()
            )
            (self_attn_layer_norm): LayerNorm((512,), eps=1e-05, elementwise_affine=True)
            (final_layer_norm): LayerNorm((512,), eps=1e-05, elementwise_affine=True)
          )
        )
      )
      (25): ODEBlock(
        (layer): StepLayer_enc(
          (F): TransformerEncoderResidualLayer(
            (self_attn): SelfAttention(
              (attn): MultiHeadAttention(
                (k_proj): Linear(in_features=512, out_features=512, bias=True)
                (v_proj): Linear(in_features=512, out_features=512, bias=True)
                (q_proj): Linear(in_features=512, out_features=512, bias=True)
                (out_proj): Linear(in_features=512, out_features=512, bias=True)
              )
            )
            (mlp): MLP(
              (fc1): Linear(in_features=512, out_features=2048, bias=True)
              (fc2): Linear(in_features=2048, out_features=512, bias=True)
              (activation_fn): SiLU()
            )
            (self_attn_layer_norm): LayerNorm((512,), eps=1e-05, elementwise_affine=True)
            (final_layer_norm): LayerNorm((512,), eps=1e-05, elementwise_affine=True)
          )
        )
      )
      (26): ODEBlock(
        (layer): StepLayer_enc(
          (F): TransformerEncoderResidualLayer(
            (self_attn): SelfAttention(
              (attn): MultiHeadAttention(
                (k_proj): Linear(in_features=512, out_features=512, bias=True)
                (v_proj): Linear(in_features=512, out_features=512, bias=True)
                (q_proj): Linear(in_features=512, out_features=512, bias=True)
                (out_proj): Linear(in_features=512, out_features=512, bias=True)
              )
            )
            (mlp): MLP(
              (fc1): Linear(in_features=512, out_features=2048, bias=True)
              (fc2): Linear(in_features=2048, out_features=512, bias=True)
              (activation_fn): SiLU()
            )
            (self_attn_layer_norm): LayerNorm((512,), eps=1e-05, elementwise_affine=True)
            (final_layer_norm): LayerNorm((512,), eps=1e-05, elementwise_affine=True)
          )
        )
      )
      (27): ODEBlock(
        (layer): StepLayer_enc(
          (F): TransformerEncoderResidualLayer(
            (self_attn): SelfAttention(
              (attn): MultiHeadAttention(
                (k_proj): Linear(in_features=512, out_features=512, bias=True)
                (v_proj): Linear(in_features=512, out_features=512, bias=True)
                (q_proj): Linear(in_features=512, out_features=512, bias=True)
                (out_proj): Linear(in_features=512, out_features=512, bias=True)
              )
            )
            (mlp): MLP(
              (fc1): Linear(in_features=512, out_features=2048, bias=True)
              (fc2): Linear(in_features=2048, out_features=512, bias=True)
              (activation_fn): SiLU()
            )
            (self_attn_layer_norm): LayerNorm((512,), eps=1e-05, elementwise_affine=True)
            (final_layer_norm): LayerNorm((512,), eps=1e-05, elementwise_affine=True)
          )
        )
      )
      (28): ODEBlock(
        (layer): StepLayer_enc(
          (F): TransformerEncoderResidualLayer(
            (self_attn): SelfAttention(
              (attn): MultiHeadAttention(
                (k_proj): Linear(in_features=512, out_features=512, bias=True)
                (v_proj): Linear(in_features=512, out_features=512, bias=True)
                (q_proj): Linear(in_features=512, out_features=512, bias=True)
                (out_proj): Linear(in_features=512, out_features=512, bias=True)
              )
            )
            (mlp): MLP(
              (fc1): Linear(in_features=512, out_features=2048, bias=True)
              (fc2): Linear(in_features=2048, out_features=512, bias=True)
              (activation_fn): SiLU()
            )
            (self_attn_layer_norm): LayerNorm((512,), eps=1e-05, elementwise_affine=True)
            (final_layer_norm): LayerNorm((512,), eps=1e-05, elementwise_affine=True)
          )
        )
      )
      (29): ODEBlock(
        (layer): StepLayer_enc(
          (F): TransformerEncoderResidualLayer(
            (self_attn): SelfAttention(
              (attn): MultiHeadAttention(
                (k_proj): Linear(in_features=512, out_features=512, bias=True)
                (v_proj): Linear(in_features=512, out_features=512, bias=True)
                (q_proj): Linear(in_features=512, out_features=512, bias=True)
                (out_proj): Linear(in_features=512, out_features=512, bias=True)
              )
            )
            (mlp): MLP(
              (fc1): Linear(in_features=512, out_features=2048, bias=True)
              (fc2): Linear(in_features=2048, out_features=512, bias=True)
              (activation_fn): SiLU()
            )
            (self_attn_layer_norm): LayerNorm((512,), eps=1e-05, elementwise_affine=True)
            (final_layer_norm): LayerNorm((512,), eps=1e-05, elementwise_affine=True)
          )
        )
      )
      (30): ODEBlock(
        (layer): StepLayer_enc(
          (F): TransformerEncoderResidualLayer(
            (self_attn): SelfAttention(
              (attn): MultiHeadAttention(
                (k_proj): Linear(in_features=512, out_features=512, bias=True)
                (v_proj): Linear(in_features=512, out_features=512, bias=True)
                (q_proj): Linear(in_features=512, out_features=512, bias=True)
                (out_proj): Linear(in_features=512, out_features=512, bias=True)
              )
            )
            (mlp): MLP(
              (fc1): Linear(in_features=512, out_features=2048, bias=True)
              (fc2): Linear(in_features=2048, out_features=512, bias=True)
              (activation_fn): SiLU()
            )
            (self_attn_layer_norm): LayerNorm((512,), eps=1e-05, elementwise_affine=True)
            (final_layer_norm): LayerNorm((512,), eps=1e-05, elementwise_affine=True)
          )
        )
      )
      (31): ODEBlock(
        (layer): StepLayer_enc(
          (F): TransformerEncoderResidualLayer(
            (self_attn): SelfAttention(
              (attn): MultiHeadAttention(
                (k_proj): Linear(in_features=512, out_features=512, bias=True)
                (v_proj): Linear(in_features=512, out_features=512, bias=True)
                (q_proj): Linear(in_features=512, out_features=512, bias=True)
                (out_proj): Linear(in_features=512, out_features=512, bias=True)
              )
            )
            (mlp): MLP(
              (fc1): Linear(in_features=512, out_features=2048, bias=True)
              (fc2): Linear(in_features=2048, out_features=512, bias=True)
              (activation_fn): SiLU()
            )
            (self_attn_layer_norm): LayerNorm((512,), eps=1e-05, elementwise_affine=True)
            (final_layer_norm): LayerNorm((512,), eps=1e-05, elementwise_affine=True)
          )
        )
      )
      (32): ODEBlock(
        (layer): StepLayer_dec(
          (F): TransformerDecoderResidualLayer(
            (self_attn): SelfAttention(
              (attn): MultiHeadAttention(
                (k_proj): Linear(in_features=512, out_features=512, bias=True)
                (v_proj): Linear(in_features=512, out_features=512, bias=True)
                (q_proj): Linear(in_features=512, out_features=512, bias=True)
                (out_proj): Linear(in_features=512, out_features=512, bias=True)
              )
            )
            (cross_attn): MultiHeadAttention(
              (k_proj): Linear(in_features=512, out_features=512, bias=True)
              (v_proj): Linear(in_features=512, out_features=512, bias=True)
              (q_proj): Linear(in_features=512, out_features=512, bias=True)
              (out_proj): Linear(in_features=512, out_features=512, bias=True)
            )
            (mlp): MLP(
              (fc1): Linear(in_features=512, out_features=2048, bias=True)
              (fc2): Linear(in_features=2048, out_features=512, bias=True)
              (activation_fn): SiLU()
            )
            (self_attn_layer_norm): LayerNorm((512,), eps=1e-05, elementwise_affine=True)
            (cross_attn_layer_norm): LayerNorm((512,), eps=1e-05, elementwise_affine=True)
            (final_layer_norm): LayerNorm((512,), eps=1e-05, elementwise_affine=True)
          )
        )
      )
    )
  )
  <...> LayerParallel(
    parallel rank = 1 of 2
    (local_layers): Sequential(
      (0): ODEBlock(
        (layer): StepLayer_dec(
          (F): TransformerDecoderResidualLayer(
            (self_attn): SelfAttention(
              (attn): MultiHeadAttention(
                (k_proj): Linear(in_features=512, out_features=512, bias=True)
                (v_proj): Linear(in_features=512, out_features=512, bias=True)
                (q_proj): Linear(in_features=512, out_features=512, bias=True)
                (out_proj): Linear(in_features=512, out_features=512, bias=True)
              )
            )
            (cross_attn): MultiHeadAttention(
              (k_proj): Linear(in_features=512, out_features=512, bias=True)
              (v_proj): Linear(in_features=512, out_features=512, bias=True)
              (q_proj): Linear(in_features=512, out_features=512, bias=True)
              (out_proj): Linear(in_features=512, out_features=512, bias=True)
            )
            (mlp): MLP(
              (fc1): Linear(in_features=512, out_features=2048, bias=True)
              (fc2): Linear(in_features=2048, out_features=512, bias=True)
              (activation_fn): SiLU()
            )
            (self_attn_layer_norm): LayerNorm((512,), eps=1e-05, elementwise_affine=True)
            (cross_attn_layer_norm): LayerNorm((512,), eps=1e-05, elementwise_affine=True)
            (final_layer_norm): LayerNorm((512,), eps=1e-05, elementwise_affine=True)
          )
        )
      )
      (1): ODEBlock(
        (layer): StepLayer_dec(
          (F): TransformerDecoderResidualLayer(
            (self_attn): SelfAttention(
              (attn): MultiHeadAttention(
                (k_proj): Linear(in_features=512, out_features=512, bias=True)
                (v_proj): Linear(in_features=512, out_features=512, bias=True)
                (q_proj): Linear(in_features=512, out_features=512, bias=True)
                (out_proj): Linear(in_features=512, out_features=512, bias=True)
              )
            )
            (cross_attn): MultiHeadAttention(
              (k_proj): Linear(in_features=512, out_features=512, bias=True)
              (v_proj): Linear(in_features=512, out_features=512, bias=True)
              (q_proj): Linear(in_features=512, out_features=512, bias=True)
              (out_proj): Linear(in_features=512, out_features=512, bias=True)
            )
            (mlp): MLP(
              (fc1): Linear(in_features=512, out_features=2048, bias=True)
              (fc2): Linear(in_features=2048, out_features=512, bias=True)
              (activation_fn): SiLU()
            )
            (self_attn_layer_norm): LayerNorm((512,), eps=1e-05, elementwise_affine=True)
            (cross_attn_layer_norm): LayerNorm((512,), eps=1e-05, elementwise_affine=True)
            (final_layer_norm): LayerNorm((512,), eps=1e-05, elementwise_affine=True)
          )
        )
      )
      (2): ODEBlock(
        (layer): StepLayer_dec(
          (F): TransformerDecoderResidualLayer(
            (self_attn): SelfAttention(
              (attn): MultiHeadAttention(
                (k_proj): Linear(in_features=512, out_features=512, bias=True)
                (v_proj): Linear(in_features=512, out_features=512, bias=True)
                (q_proj): Linear(in_features=512, out_features=512, bias=True)
                (out_proj): Linear(in_features=512, out_features=512, bias=True)
              )
            )
            (cross_attn): MultiHeadAttention(
              (k_proj): Linear(in_features=512, out_features=512, bias=True)
              (v_proj): Linear(in_features=512, out_features=512, bias=True)
              (q_proj): Linear(in_features=512, out_features=512, bias=True)
              (out_proj): Linear(in_features=512, out_features=512, bias=True)
            )
            (mlp): MLP(
              (fc1): Linear(in_features=512, out_features=2048, bias=True)
              (fc2): Linear(in_features=2048, out_features=512, bias=True)
              (activation_fn): SiLU()
            )
            (self_attn_layer_norm): LayerNorm((512,), eps=1e-05, elementwise_affine=True)
            (cross_attn_layer_norm): LayerNorm((512,), eps=1e-05, elementwise_affine=True)
            (final_layer_norm): LayerNorm((512,), eps=1e-05, elementwise_affine=True)
          )
        )
      )
      (3): ODEBlock(
        (layer): StepLayer_dec(
          (F): TransformerDecoderResidualLayer(
            (self_attn): SelfAttention(
              (attn): MultiHeadAttention(
                (k_proj): Linear(in_features=512, out_features=512, bias=True)
                (v_proj): Linear(in_features=512, out_features=512, bias=True)
                (q_proj): Linear(in_features=512, out_features=512, bias=True)
                (out_proj): Linear(in_features=512, out_features=512, bias=True)
              )
            )
            (cross_attn): MultiHeadAttention(
              (k_proj): Linear(in_features=512, out_features=512, bias=True)
              (v_proj): Linear(in_features=512, out_features=512, bias=True)
              (q_proj): Linear(in_features=512, out_features=512, bias=True)
              (out_proj): Linear(in_features=512, out_features=512, bias=True)
            )
            (mlp): MLP(
              (fc1): Linear(in_features=512, out_features=2048, bias=True)
              (fc2): Linear(in_features=2048, out_features=512, bias=True)
              (activation_fn): SiLU()
            )
            (self_attn_layer_norm): LayerNorm((512,), eps=1e-05, elementwise_affine=True)
            (cross_attn_layer_norm): LayerNorm((512,), eps=1e-05, elementwise_affine=True)
            (final_layer_norm): LayerNorm((512,), eps=1e-05, elementwise_affine=True)
          )
        )
      )
      (4): ODEBlock(
        (layer): StepLayer_dec(
          (F): TransformerDecoderResidualLayer(
            (self_attn): SelfAttention(
              (attn): MultiHeadAttention(
                (k_proj): Linear(in_features=512, out_features=512, bias=True)
                (v_proj): Linear(in_features=512, out_features=512, bias=True)
                (q_proj): Linear(in_features=512, out_features=512, bias=True)
                (out_proj): Linear(in_features=512, out_features=512, bias=True)
              )
            )
            (cross_attn): MultiHeadAttention(
              (k_proj): Linear(in_features=512, out_features=512, bias=True)
              (v_proj): Linear(in_features=512, out_features=512, bias=True)
              (q_proj): Linear(in_features=512, out_features=512, bias=True)
              (out_proj): Linear(in_features=512, out_features=512, bias=True)
            )
            (mlp): MLP(
              (fc1): Linear(in_features=512, out_features=2048, bias=True)
              (fc2): Linear(in_features=2048, out_features=512, bias=True)
              (activation_fn): SiLU()
            )
            (self_attn_layer_norm): LayerNorm((512,), eps=1e-05, elementwise_affine=True)
            (cross_attn_layer_norm): LayerNorm((512,), eps=1e-05, elementwise_affine=True)
            (final_layer_norm): LayerNorm((512,), eps=1e-05, elementwise_affine=True)
          )
        )
      )
      (5): ODEBlock(
        (layer): StepLayer_dec(
          (F): TransformerDecoderResidualLayer(
            (self_attn): SelfAttention(
              (attn): MultiHeadAttention(
                (k_proj): Linear(in_features=512, out_features=512, bias=True)
                (v_proj): Linear(in_features=512, out_features=512, bias=True)
                (q_proj): Linear(in_features=512, out_features=512, bias=True)
                (out_proj): Linear(in_features=512, out_features=512, bias=True)
              )
            )
            (cross_attn): MultiHeadAttention(
              (k_proj): Linear(in_features=512, out_features=512, bias=True)
              (v_proj): Linear(in_features=512, out_features=512, bias=True)
              (q_proj): Linear(in_features=512, out_features=512, bias=True)
              (out_proj): Linear(in_features=512, out_features=512, bias=True)
            )
            (mlp): MLP(
              (fc1): Linear(in_features=512, out_features=2048, bias=True)
              (fc2): Linear(in_features=2048, out_features=512, bias=True)
              (activation_fn): SiLU()
            )
            (self_attn_layer_norm): LayerNorm((512,), eps=1e-05, elementwise_affine=True)
            (cross_attn_layer_norm): LayerNorm((512,), eps=1e-05, elementwise_affine=True)
            (final_layer_norm): LayerNorm((512,), eps=1e-05, elementwise_affine=True)
          )
        )
      )
      (6): ODEBlock(
        (layer): StepLayer_dec(
          (F): TransformerDecoderResidualLayer(
            (self_attn): SelfAttention(
              (attn): MultiHeadAttention(
                (k_proj): Linear(in_features=512, out_features=512, bias=True)
                (v_proj): Linear(in_features=512, out_features=512, bias=True)
                (q_proj): Linear(in_features=512, out_features=512, bias=True)
                (out_proj): Linear(in_features=512, out_features=512, bias=True)
              )
            )
            (cross_attn): MultiHeadAttention(
              (k_proj): Linear(in_features=512, out_features=512, bias=True)
              (v_proj): Linear(in_features=512, out_features=512, bias=True)
              (q_proj): Linear(in_features=512, out_features=512, bias=True)
              (out_proj): Linear(in_features=512, out_features=512, bias=True)
            )
            (mlp): MLP(
              (fc1): Linear(in_features=512, out_features=2048, bias=True)
              (fc2): Linear(in_features=2048, out_features=512, bias=True)
              (activation_fn): SiLU()
            )
            (self_attn_layer_norm): LayerNorm((512,), eps=1e-05, elementwise_affine=True)
            (cross_attn_layer_norm): LayerNorm((512,), eps=1e-05, elementwise_affine=True)
            (final_layer_norm): LayerNorm((512,), eps=1e-05, elementwise_affine=True)
          )
        )
      )
      (7): ODEBlock(
        (layer): StepLayer_dec(
          (F): TransformerDecoderResidualLayer(
            (self_attn): SelfAttention(
              (attn): MultiHeadAttention(
                (k_proj): Linear(in_features=512, out_features=512, bias=True)
                (v_proj): Linear(in_features=512, out_features=512, bias=True)
                (q_proj): Linear(in_features=512, out_features=512, bias=True)
                (out_proj): Linear(in_features=512, out_features=512, bias=True)
              )
            )
            (cross_attn): MultiHeadAttention(
              (k_proj): Linear(in_features=512, out_features=512, bias=True)
              (v_proj): Linear(in_features=512, out_features=512, bias=True)
              (q_proj): Linear(in_features=512, out_features=512, bias=True)
              (out_proj): Linear(in_features=512, out_features=512, bias=True)
            )
            (mlp): MLP(
              (fc1): Linear(in_features=512, out_features=2048, bias=True)
              (fc2): Linear(in_features=2048, out_features=512, bias=True)
              (activation_fn): SiLU()
            )
            (self_attn_layer_norm): LayerNorm((512,), eps=1e-05, elementwise_affine=True)
            (cross_attn_layer_norm): LayerNorm((512,), eps=1e-05, elementwise_affine=True)
            (final_layer_norm): LayerNorm((512,), eps=1e-05, elementwise_affine=True)
          )
        )
      )
      (8): ODEBlock(
        (layer): StepLayer_dec(
          (F): TransformerDecoderResidualLayer(
            (self_attn): SelfAttention(
              (attn): MultiHeadAttention(
                (k_proj): Linear(in_features=512, out_features=512, bias=True)
                (v_proj): Linear(in_features=512, out_features=512, bias=True)
                (q_proj): Linear(in_features=512, out_features=512, bias=True)
                (out_proj): Linear(in_features=512, out_features=512, bias=True)
              )
            )
            (cross_attn): MultiHeadAttention(
              (k_proj): Linear(in_features=512, out_features=512, bias=True)
              (v_proj): Linear(in_features=512, out_features=512, bias=True)
              (q_proj): Linear(in_features=512, out_features=512, bias=True)
              (out_proj): Linear(in_features=512, out_features=512, bias=True)
            )
            (mlp): MLP(
              (fc1): Linear(in_features=512, out_features=2048, bias=True)
              (fc2): Linear(in_features=2048, out_features=512, bias=True)
              (activation_fn): SiLU()
            )
            (self_attn_layer_norm): LayerNorm((512,), eps=1e-05, elementwise_affine=True)
            (cross_attn_layer_norm): LayerNorm((512,), eps=1e-05, elementwise_affine=True)
            (final_layer_norm): LayerNorm((512,), eps=1e-05, elementwise_affine=True)
          )
        )
      )
      (9): ODEBlock(
        (layer): StepLayer_dec(
          (F): TransformerDecoderResidualLayer(
            (self_attn): SelfAttention(
              (attn): MultiHeadAttention(
                (k_proj): Linear(in_features=512, out_features=512, bias=True)
                (v_proj): Linear(in_features=512, out_features=512, bias=True)
                (q_proj): Linear(in_features=512, out_features=512, bias=True)
                (out_proj): Linear(in_features=512, out_features=512, bias=True)
              )
            )
            (cross_attn): MultiHeadAttention(
              (k_proj): Linear(in_features=512, out_features=512, bias=True)
              (v_proj): Linear(in_features=512, out_features=512, bias=True)
              (q_proj): Linear(in_features=512, out_features=512, bias=True)
              (out_proj): Linear(in_features=512, out_features=512, bias=True)
            )
            (mlp): MLP(
              (fc1): Linear(in_features=512, out_features=2048, bias=True)
              (fc2): Linear(in_features=2048, out_features=512, bias=True)
              (activation_fn): SiLU()
            )
            (self_attn_layer_norm): LayerNorm((512,), eps=1e-05, elementwise_affine=True)
            (cross_attn_layer_norm): LayerNorm((512,), eps=1e-05, elementwise_affine=True)
            (final_layer_norm): LayerNorm((512,), eps=1e-05, elementwise_affine=True)
          )
        )
      )
      (10): ODEBlock(
        (layer): StepLayer_dec(
          (F): TransformerDecoderResidualLayer(
            (self_attn): SelfAttention(
              (attn): MultiHeadAttention(
                (k_proj): Linear(in_features=512, out_features=512, bias=True)
                (v_proj): Linear(in_features=512, out_features=512, bias=True)
                (q_proj): Linear(in_features=512, out_features=512, bias=True)
                (out_proj): Linear(in_features=512, out_features=512, bias=True)
              )
            )
            (cross_attn): MultiHeadAttention(
              (k_proj): Linear(in_features=512, out_features=512, bias=True)
              (v_proj): Linear(in_features=512, out_features=512, bias=True)
              (q_proj): Linear(in_features=512, out_features=512, bias=True)
              (out_proj): Linear(in_features=512, out_features=512, bias=True)
            )
            (mlp): MLP(
              (fc1): Linear(in_features=512, out_features=2048, bias=True)
              (fc2): Linear(in_features=2048, out_features=512, bias=True)
              (activation_fn): SiLU()
            )
            (self_attn_layer_norm): LayerNorm((512,), eps=1e-05, elementwise_affine=True)
            (cross_attn_layer_norm): LayerNorm((512,), eps=1e-05, elementwise_affine=True)
            (final_layer_norm): LayerNorm((512,), eps=1e-05, elementwise_affine=True)
          )
        )
      )
      (11): ODEBlock(
        (layer): StepLayer_dec(
          (F): TransformerDecoderResidualLayer(
            (self_attn): SelfAttention(
              (attn): MultiHeadAttention(
                (k_proj): Linear(in_features=512, out_features=512, bias=True)
                (v_proj): Linear(in_features=512, out_features=512, bias=True)
                (q_proj): Linear(in_features=512, out_features=512, bias=True)
                (out_proj): Linear(in_features=512, out_features=512, bias=True)
              )
            )
            (cross_attn): MultiHeadAttention(
              (k_proj): Linear(in_features=512, out_features=512, bias=True)
              (v_proj): Linear(in_features=512, out_features=512, bias=True)
              (q_proj): Linear(in_features=512, out_features=512, bias=True)
              (out_proj): Linear(in_features=512, out_features=512, bias=True)
            )
            (mlp): MLP(
              (fc1): Linear(in_features=512, out_features=2048, bias=True)
              (fc2): Linear(in_features=2048, out_features=512, bias=True)
              (activation_fn): SiLU()
            )
            (self_attn_layer_norm): LayerNorm((512,), eps=1e-05, elementwise_affine=True)
            (cross_attn_layer_norm): LayerNorm((512,), eps=1e-05, elementwise_affine=True)
            (final_layer_norm): LayerNorm((512,), eps=1e-05, elementwise_affine=True)
          )
        )
      )
      (12): ODEBlock(
        (layer): StepLayer_dec(
          (F): TransformerDecoderResidualLayer(
            (self_attn): SelfAttention(
              (attn): MultiHeadAttention(
                (k_proj): Linear(in_features=512, out_features=512, bias=True)
                (v_proj): Linear(in_features=512, out_features=512, bias=True)
                (q_proj): Linear(in_features=512, out_features=512, bias=True)
                (out_proj): Linear(in_features=512, out_features=512, bias=True)
              )
            )
            (cross_attn): MultiHeadAttention(
              (k_proj): Linear(in_features=512, out_features=512, bias=True)
              (v_proj): Linear(in_features=512, out_features=512, bias=True)
              (q_proj): Linear(in_features=512, out_features=512, bias=True)
              (out_proj): Linear(in_features=512, out_features=512, bias=True)
            )
            (mlp): MLP(
              (fc1): Linear(in_features=512, out_features=2048, bias=True)
              (fc2): Linear(in_features=2048, out_features=512, bias=True)
              (activation_fn): SiLU()
            )
            (self_attn_layer_norm): LayerNorm((512,), eps=1e-05, elementwise_affine=True)
            (cross_attn_layer_norm): LayerNorm((512,), eps=1e-05, elementwise_affine=True)
            (final_layer_norm): LayerNorm((512,), eps=1e-05, elementwise_affine=True)
          )
        )
      )
      (13): ODEBlock(
        (layer): StepLayer_dec(
          (F): TransformerDecoderResidualLayer(
            (self_attn): SelfAttention(
              (attn): MultiHeadAttention(
                (k_proj): Linear(in_features=512, out_features=512, bias=True)
                (v_proj): Linear(in_features=512, out_features=512, bias=True)
                (q_proj): Linear(in_features=512, out_features=512, bias=True)
                (out_proj): Linear(in_features=512, out_features=512, bias=True)
              )
            )
            (cross_attn): MultiHeadAttention(
              (k_proj): Linear(in_features=512, out_features=512, bias=True)
              (v_proj): Linear(in_features=512, out_features=512, bias=True)
              (q_proj): Linear(in_features=512, out_features=512, bias=True)
              (out_proj): Linear(in_features=512, out_features=512, bias=True)
            )
            (mlp): MLP(
              (fc1): Linear(in_features=512, out_features=2048, bias=True)
              (fc2): Linear(in_features=2048, out_features=512, bias=True)
              (activation_fn): SiLU()
            )
            (self_attn_layer_norm): LayerNorm((512,), eps=1e-05, elementwise_affine=True)
            (cross_attn_layer_norm): LayerNorm((512,), eps=1e-05, elementwise_affine=True)
            (final_layer_norm): LayerNorm((512,), eps=1e-05, elementwise_affine=True)
          )
        )
      )
      (14): ODEBlock(
        (layer): StepLayer_dec(
          (F): TransformerDecoderResidualLayer(
            (self_attn): SelfAttention(
              (attn): MultiHeadAttention(
                (k_proj): Linear(in_features=512, out_features=512, bias=True)
                (v_proj): Linear(in_features=512, out_features=512, bias=True)
                (q_proj): Linear(in_features=512, out_features=512, bias=True)
                (out_proj): Linear(in_features=512, out_features=512, bias=True)
              )
            )
            (cross_attn): MultiHeadAttention(
              (k_proj): Linear(in_features=512, out_features=512, bias=True)
              (v_proj): Linear(in_features=512, out_features=512, bias=True)
              (q_proj): Linear(in_features=512, out_features=512, bias=True)
              (out_proj): Linear(in_features=512, out_features=512, bias=True)
            )
            (mlp): MLP(
              (fc1): Linear(in_features=512, out_features=2048, bias=True)
              (fc2): Linear(in_features=2048, out_features=512, bias=True)
              (activation_fn): SiLU()
            )
            (self_attn_layer_norm): LayerNorm((512,), eps=1e-05, elementwise_affine=True)
            (cross_attn_layer_norm): LayerNorm((512,), eps=1e-05, elementwise_affine=True)
            (final_layer_norm): LayerNorm((512,), eps=1e-05, elementwise_affine=True)
          )
        )
      )
      (15): ODEBlock(
        (layer): StepLayer_dec(
          (F): TransformerDecoderResidualLayer(
            (self_attn): SelfAttention(
              (attn): MultiHeadAttention(
                (k_proj): Linear(in_features=512, out_features=512, bias=True)
                (v_proj): Linear(in_features=512, out_features=512, bias=True)
                (q_proj): Linear(in_features=512, out_features=512, bias=True)
                (out_proj): Linear(in_features=512, out_features=512, bias=True)
              )
            )
            (cross_attn): MultiHeadAttention(
              (k_proj): Linear(in_features=512, out_features=512, bias=True)
              (v_proj): Linear(in_features=512, out_features=512, bias=True)
              (q_proj): Linear(in_features=512, out_features=512, bias=True)
              (out_proj): Linear(in_features=512, out_features=512, bias=True)
            )
            (mlp): MLP(
              (fc1): Linear(in_features=512, out_features=2048, bias=True)
              (fc2): Linear(in_features=2048, out_features=512, bias=True)
              (activation_fn): SiLU()
            )
            (self_attn_layer_norm): LayerNorm((512,), eps=1e-05, elementwise_affine=True)
            (cross_attn_layer_norm): LayerNorm((512,), eps=1e-05, elementwise_affine=True)
            (final_layer_norm): LayerNorm((512,), eps=1e-05, elementwise_affine=True)
          )
        )
      )
      (16): ODEBlock(
        (layer): StepLayer_dec(
          (F): TransformerDecoderResidualLayer(
            (self_attn): SelfAttention(
              (attn): MultiHeadAttention(
                (k_proj): Linear(in_features=512, out_features=512, bias=True)
                (v_proj): Linear(in_features=512, out_features=512, bias=True)
                (q_proj): Linear(in_features=512, out_features=512, bias=True)
                (out_proj): Linear(in_features=512, out_features=512, bias=True)
              )
            )
            (cross_attn): MultiHeadAttention(
              (k_proj): Linear(in_features=512, out_features=512, bias=True)
              (v_proj): Linear(in_features=512, out_features=512, bias=True)
              (q_proj): Linear(in_features=512, out_features=512, bias=True)
              (out_proj): Linear(in_features=512, out_features=512, bias=True)
            )
            (mlp): MLP(
              (fc1): Linear(in_features=512, out_features=2048, bias=True)
              (fc2): Linear(in_features=2048, out_features=512, bias=True)
              (activation_fn): SiLU()
            )
            (self_attn_layer_norm): LayerNorm((512,), eps=1e-05, elementwise_affine=True)
            (cross_attn_layer_norm): LayerNorm((512,), eps=1e-05, elementwise_affine=True)
            (final_layer_norm): LayerNorm((512,), eps=1e-05, elementwise_affine=True)
          )
        )
      )
      (17): ODEBlock(
        (layer): StepLayer_dec(
          (F): TransformerDecoderResidualLayer(
            (self_attn): SelfAttention(
              (attn): MultiHeadAttention(
                (k_proj): Linear(in_features=512, out_features=512, bias=True)
                (v_proj): Linear(in_features=512, out_features=512, bias=True)
                (q_proj): Linear(in_features=512, out_features=512, bias=True)
                (out_proj): Linear(in_features=512, out_features=512, bias=True)
              )
            )
            (cross_attn): MultiHeadAttention(
              (k_proj): Linear(in_features=512, out_features=512, bias=True)
              (v_proj): Linear(in_features=512, out_features=512, bias=True)
              (q_proj): Linear(in_features=512, out_features=512, bias=True)
              (out_proj): Linear(in_features=512, out_features=512, bias=True)
            )
            (mlp): MLP(
              (fc1): Linear(in_features=512, out_features=2048, bias=True)
              (fc2): Linear(in_features=2048, out_features=512, bias=True)
              (activation_fn): SiLU()
            )
            (self_attn_layer_norm): LayerNorm((512,), eps=1e-05, elementwise_affine=True)
            (cross_attn_layer_norm): LayerNorm((512,), eps=1e-05, elementwise_affine=True)
            (final_layer_norm): LayerNorm((512,), eps=1e-05, elementwise_affine=True)
          )
        )
      )
      (18): ODEBlock(
        (layer): StepLayer_dec(
          (F): TransformerDecoderResidualLayer(
            (self_attn): SelfAttention(
              (attn): MultiHeadAttention(
                (k_proj): Linear(in_features=512, out_features=512, bias=True)
                (v_proj): Linear(in_features=512, out_features=512, bias=True)
                (q_proj): Linear(in_features=512, out_features=512, bias=True)
                (out_proj): Linear(in_features=512, out_features=512, bias=True)
              )
            )
            (cross_attn): MultiHeadAttention(
              (k_proj): Linear(in_features=512, out_features=512, bias=True)
              (v_proj): Linear(in_features=512, out_features=512, bias=True)
              (q_proj): Linear(in_features=512, out_features=512, bias=True)
              (out_proj): Linear(in_features=512, out_features=512, bias=True)
            )
            (mlp): MLP(
              (fc1): Linear(in_features=512, out_features=2048, bias=True)
              (fc2): Linear(in_features=2048, out_features=512, bias=True)
              (activation_fn): SiLU()
            )
            (self_attn_layer_norm): LayerNorm((512,), eps=1e-05, elementwise_affine=True)
            (cross_attn_layer_norm): LayerNorm((512,), eps=1e-05, elementwise_affine=True)
            (final_layer_norm): LayerNorm((512,), eps=1e-05, elementwise_affine=True)
          )
        )
      )
      (19): ODEBlock(
        (layer): StepLayer_dec(
          (F): TransformerDecoderResidualLayer(
            (self_attn): SelfAttention(
              (attn): MultiHeadAttention(
                (k_proj): Linear(in_features=512, out_features=512, bias=True)
                (v_proj): Linear(in_features=512, out_features=512, bias=True)
                (q_proj): Linear(in_features=512, out_features=512, bias=True)
                (out_proj): Linear(in_features=512, out_features=512, bias=True)
              )
            )
            (cross_attn): MultiHeadAttention(
              (k_proj): Linear(in_features=512, out_features=512, bias=True)
              (v_proj): Linear(in_features=512, out_features=512, bias=True)
              (q_proj): Linear(in_features=512, out_features=512, bias=True)
              (out_proj): Linear(in_features=512, out_features=512, bias=True)
            )
            (mlp): MLP(
              (fc1): Linear(in_features=512, out_features=2048, bias=True)
              (fc2): Linear(in_features=2048, out_features=512, bias=True)
              (activation_fn): SiLU()
            )
            (self_attn_layer_norm): LayerNorm((512,), eps=1e-05, elementwise_affine=True)
            (cross_attn_layer_norm): LayerNorm((512,), eps=1e-05, elementwise_affine=True)
            (final_layer_norm): LayerNorm((512,), eps=1e-05, elementwise_affine=True)
          )
        )
      )
      (20): ODEBlock(
        (layer): StepLayer_dec(
          (F): TransformerDecoderResidualLayer(
            (self_attn): SelfAttention(
              (attn): MultiHeadAttention(
                (k_proj): Linear(in_features=512, out_features=512, bias=True)
                (v_proj): Linear(in_features=512, out_features=512, bias=True)
                (q_proj): Linear(in_features=512, out_features=512, bias=True)
                (out_proj): Linear(in_features=512, out_features=512, bias=True)
              )
            )
            (cross_attn): MultiHeadAttention(
              (k_proj): Linear(in_features=512, out_features=512, bias=True)
              (v_proj): Linear(in_features=512, out_features=512, bias=True)
              (q_proj): Linear(in_features=512, out_features=512, bias=True)
              (out_proj): Linear(in_features=512, out_features=512, bias=True)
            )
            (mlp): MLP(
              (fc1): Linear(in_features=512, out_features=2048, bias=True)
              (fc2): Linear(in_features=2048, out_features=512, bias=True)
              (activation_fn): SiLU()
            )
            (self_attn_layer_norm): LayerNorm((512,), eps=1e-05, elementwise_affine=True)
            (cross_attn_layer_norm): LayerNorm((512,), eps=1e-05, elementwise_affine=True)
            (final_layer_norm): LayerNorm((512,), eps=1e-05, elementwise_affine=True)
          )
        )
      )
      (21): ODEBlock(
        (layer): StepLayer_dec(
          (F): TransformerDecoderResidualLayer(
            (self_attn): SelfAttention(
              (attn): MultiHeadAttention(
                (k_proj): Linear(in_features=512, out_features=512, bias=True)
                (v_proj): Linear(in_features=512, out_features=512, bias=True)
                (q_proj): Linear(in_features=512, out_features=512, bias=True)
                (out_proj): Linear(in_features=512, out_features=512, bias=True)
              )
            )
            (cross_attn): MultiHeadAttention(
              (k_proj): Linear(in_features=512, out_features=512, bias=True)
              (v_proj): Linear(in_features=512, out_features=512, bias=True)
              (q_proj): Linear(in_features=512, out_features=512, bias=True)
              (out_proj): Linear(in_features=512, out_features=512, bias=True)
            )
            (mlp): MLP(
              (fc1): Linear(in_features=512, out_features=2048, bias=True)
              (fc2): Linear(in_features=2048, out_features=512, bias=True)
              (activation_fn): SiLU()
            )
            (self_attn_layer_norm): LayerNorm((512,), eps=1e-05, elementwise_affine=True)
            (cross_attn_layer_norm): LayerNorm((512,), eps=1e-05, elementwise_affine=True)
            (final_layer_norm): LayerNorm((512,), eps=1e-05, elementwise_affine=True)
          )
        )
      )
      (22): ODEBlock(
        (layer): StepLayer_dec(
          (F): TransformerDecoderResidualLayer(
            (self_attn): SelfAttention(
              (attn): MultiHeadAttention(
                (k_proj): Linear(in_features=512, out_features=512, bias=True)
                (v_proj): Linear(in_features=512, out_features=512, bias=True)
                (q_proj): Linear(in_features=512, out_features=512, bias=True)
                (out_proj): Linear(in_features=512, out_features=512, bias=True)
              )
            )
            (cross_attn): MultiHeadAttention(
              (k_proj): Linear(in_features=512, out_features=512, bias=True)
              (v_proj): Linear(in_features=512, out_features=512, bias=True)
              (q_proj): Linear(in_features=512, out_features=512, bias=True)
              (out_proj): Linear(in_features=512, out_features=512, bias=True)
            )
            (mlp): MLP(
              (fc1): Linear(in_features=512, out_features=2048, bias=True)
              (fc2): Linear(in_features=2048, out_features=512, bias=True)
              (activation_fn): SiLU()
            )
            (self_attn_layer_norm): LayerNorm((512,), eps=1e-05, elementwise_affine=True)
            (cross_attn_layer_norm): LayerNorm((512,), eps=1e-05, elementwise_affine=True)
            (final_layer_norm): LayerNorm((512,), eps=1e-05, elementwise_affine=True)
          )
        )
      )
      (23): ODEBlock(
        (layer): StepLayer_dec(
          (F): TransformerDecoderResidualLayer(
            (self_attn): SelfAttention(
              (attn): MultiHeadAttention(
                (k_proj): Linear(in_features=512, out_features=512, bias=True)
                (v_proj): Linear(in_features=512, out_features=512, bias=True)
                (q_proj): Linear(in_features=512, out_features=512, bias=True)
                (out_proj): Linear(in_features=512, out_features=512, bias=True)
              )
            )
            (cross_attn): MultiHeadAttention(
              (k_proj): Linear(in_features=512, out_features=512, bias=True)
              (v_proj): Linear(in_features=512, out_features=512, bias=True)
              (q_proj): Linear(in_features=512, out_features=512, bias=True)
              (out_proj): Linear(in_features=512, out_features=512, bias=True)
            )
            (mlp): MLP(
              (fc1): Linear(in_features=512, out_features=2048, bias=True)
              (fc2): Linear(in_features=2048, out_features=512, bias=True)
              (activation_fn): SiLU()
            )
            (self_attn_layer_norm): LayerNorm((512,), eps=1e-05, elementwise_affine=True)
            (cross_attn_layer_norm): LayerNorm((512,), eps=1e-05, elementwise_affine=True)
            (final_layer_norm): LayerNorm((512,), eps=1e-05, elementwise_affine=True)
          )
        )
      )
      (24): ODEBlock(
        (layer): StepLayer_dec(
          (F): TransformerDecoderResidualLayer(
            (self_attn): SelfAttention(
              (attn): MultiHeadAttention(
                (k_proj): Linear(in_features=512, out_features=512, bias=True)
                (v_proj): Linear(in_features=512, out_features=512, bias=True)
                (q_proj): Linear(in_features=512, out_features=512, bias=True)
                (out_proj): Linear(in_features=512, out_features=512, bias=True)
              )
            )
            (cross_attn): MultiHeadAttention(
              (k_proj): Linear(in_features=512, out_features=512, bias=True)
              (v_proj): Linear(in_features=512, out_features=512, bias=True)
              (q_proj): Linear(in_features=512, out_features=512, bias=True)
              (out_proj): Linear(in_features=512, out_features=512, bias=True)
            )
            (mlp): MLP(
              (fc1): Linear(in_features=512, out_features=2048, bias=True)
              (fc2): Linear(in_features=2048, out_features=512, bias=True)
              (activation_fn): SiLU()
            )
            (self_attn_layer_norm): LayerNorm((512,), eps=1e-05, elementwise_affine=True)
            (cross_attn_layer_norm): LayerNorm((512,), eps=1e-05, elementwise_affine=True)
            (final_layer_norm): LayerNorm((512,), eps=1e-05, elementwise_affine=True)
          )
        )
      )
      (25): ODEBlock(
        (layer): StepLayer_dec(
          (F): TransformerDecoderResidualLayer(
            (self_attn): SelfAttention(
              (attn): MultiHeadAttention(
                (k_proj): Linear(in_features=512, out_features=512, bias=True)
                (v_proj): Linear(in_features=512, out_features=512, bias=True)
                (q_proj): Linear(in_features=512, out_features=512, bias=True)
                (out_proj): Linear(in_features=512, out_features=512, bias=True)
              )
            )
            (cross_attn): MultiHeadAttention(
              (k_proj): Linear(in_features=512, out_features=512, bias=True)
              (v_proj): Linear(in_features=512, out_features=512, bias=True)
              (q_proj): Linear(in_features=512, out_features=512, bias=True)
              (out_proj): Linear(in_features=512, out_features=512, bias=True)
            )
            (mlp): MLP(
              (fc1): Linear(in_features=512, out_features=2048, bias=True)
              (fc2): Linear(in_features=2048, out_features=512, bias=True)
              (activation_fn): SiLU()
            )
            (self_attn_layer_norm): LayerNorm((512,), eps=1e-05, elementwise_affine=True)
            (cross_attn_layer_norm): LayerNorm((512,), eps=1e-05, elementwise_affine=True)
            (final_layer_norm): LayerNorm((512,), eps=1e-05, elementwise_affine=True)
          )
        )
      )
      (26): ODEBlock(
        (layer): StepLayer_dec(
          (F): TransformerDecoderResidualLayer(
            (self_attn): SelfAttention(
              (attn): MultiHeadAttention(
                (k_proj): Linear(in_features=512, out_features=512, bias=True)
                (v_proj): Linear(in_features=512, out_features=512, bias=True)
                (q_proj): Linear(in_features=512, out_features=512, bias=True)
                (out_proj): Linear(in_features=512, out_features=512, bias=True)
              )
            )
            (cross_attn): MultiHeadAttention(
              (k_proj): Linear(in_features=512, out_features=512, bias=True)
              (v_proj): Linear(in_features=512, out_features=512, bias=True)
              (q_proj): Linear(in_features=512, out_features=512, bias=True)
              (out_proj): Linear(in_features=512, out_features=512, bias=True)
            )
            (mlp): MLP(
              (fc1): Linear(in_features=512, out_features=2048, bias=True)
              (fc2): Linear(in_features=2048, out_features=512, bias=True)
              (activation_fn): SiLU()
            )
            (self_attn_layer_norm): LayerNorm((512,), eps=1e-05, elementwise_affine=True)
            (cross_attn_layer_norm): LayerNorm((512,), eps=1e-05, elementwise_affine=True)
            (final_layer_norm): LayerNorm((512,), eps=1e-05, elementwise_affine=True)
          )
        )
      )
      (27): ODEBlock(
        (layer): StepLayer_dec(
          (F): TransformerDecoderResidualLayer(
            (self_attn): SelfAttention(
              (attn): MultiHeadAttention(
                (k_proj): Linear(in_features=512, out_features=512, bias=True)
                (v_proj): Linear(in_features=512, out_features=512, bias=True)
                (q_proj): Linear(in_features=512, out_features=512, bias=True)
                (out_proj): Linear(in_features=512, out_features=512, bias=True)
              )
            )
            (cross_attn): MultiHeadAttention(
              (k_proj): Linear(in_features=512, out_features=512, bias=True)
              (v_proj): Linear(in_features=512, out_features=512, bias=True)
              (q_proj): Linear(in_features=512, out_features=512, bias=True)
              (out_proj): Linear(in_features=512, out_features=512, bias=True)
            )
            (mlp): MLP(
              (fc1): Linear(in_features=512, out_features=2048, bias=True)
              (fc2): Linear(in_features=2048, out_features=512, bias=True)
              (activation_fn): SiLU()
            )
            (self_attn_layer_norm): LayerNorm((512,), eps=1e-05, elementwise_affine=True)
            (cross_attn_layer_norm): LayerNorm((512,), eps=1e-05, elementwise_affine=True)
            (final_layer_norm): LayerNorm((512,), eps=1e-05, elementwise_affine=True)
          )
        )
      )
      (28): ODEBlock(
        (layer): StepLayer_dec(
          (F): TransformerDecoderResidualLayer(
            (self_attn): SelfAttention(
              (attn): MultiHeadAttention(
                (k_proj): Linear(in_features=512, out_features=512, bias=True)
                (v_proj): Linear(in_features=512, out_features=512, bias=True)
                (q_proj): Linear(in_features=512, out_features=512, bias=True)
                (out_proj): Linear(in_features=512, out_features=512, bias=True)
              )
            )
            (cross_attn): MultiHeadAttention(
              (k_proj): Linear(in_features=512, out_features=512, bias=True)
              (v_proj): Linear(in_features=512, out_features=512, bias=True)
              (q_proj): Linear(in_features=512, out_features=512, bias=True)
              (out_proj): Linear(in_features=512, out_features=512, bias=True)
            )
            (mlp): MLP(
              (fc1): Linear(in_features=512, out_features=2048, bias=True)
              (fc2): Linear(in_features=2048, out_features=512, bias=True)
              (activation_fn): SiLU()
            )
            (self_attn_layer_norm): LayerNorm((512,), eps=1e-05, elementwise_affine=True)
            (cross_attn_layer_norm): LayerNorm((512,), eps=1e-05, elementwise_affine=True)
            (final_layer_norm): LayerNorm((512,), eps=1e-05, elementwise_affine=True)
          )
        )
      )
      (29): ODEBlock(
        (layer): StepLayer_dec(
          (F): TransformerDecoderResidualLayer(
            (self_attn): SelfAttention(
              (attn): MultiHeadAttention(
                (k_proj): Linear(in_features=512, out_features=512, bias=True)
                (v_proj): Linear(in_features=512, out_features=512, bias=True)
                (q_proj): Linear(in_features=512, out_features=512, bias=True)
                (out_proj): Linear(in_features=512, out_features=512, bias=True)
              )
            )
            (cross_attn): MultiHeadAttention(
              (k_proj): Linear(in_features=512, out_features=512, bias=True)
              (v_proj): Linear(in_features=512, out_features=512, bias=True)
              (q_proj): Linear(in_features=512, out_features=512, bias=True)
              (out_proj): Linear(in_features=512, out_features=512, bias=True)
            )
            (mlp): MLP(
              (fc1): Linear(in_features=512, out_features=2048, bias=True)
              (fc2): Linear(in_features=2048, out_features=512, bias=True)
              (activation_fn): SiLU()
            )
            (self_attn_layer_norm): LayerNorm((512,), eps=1e-05, elementwise_affine=True)
            (cross_attn_layer_norm): LayerNorm((512,), eps=1e-05, elementwise_affine=True)
            (final_layer_norm): LayerNorm((512,), eps=1e-05, elementwise_affine=True)
          )
        )
      )
      (30): ODEBlock(
        (layer): StepLayer_dec(
          (F): TransformerDecoderResidualLayer(
            (self_attn): SelfAttention(
              (attn): MultiHeadAttention(
                (k_proj): Linear(in_features=512, out_features=512, bias=True)
                (v_proj): Linear(in_features=512, out_features=512, bias=True)
                (q_proj): Linear(in_features=512, out_features=512, bias=True)
                (out_proj): Linear(in_features=512, out_features=512, bias=True)
              )
            )
            (cross_attn): MultiHeadAttention(
              (k_proj): Linear(in_features=512, out_features=512, bias=True)
              (v_proj): Linear(in_features=512, out_features=512, bias=True)
              (q_proj): Linear(in_features=512, out_features=512, bias=True)
              (out_proj): Linear(in_features=512, out_features=512, bias=True)
            )
            (mlp): MLP(
              (fc1): Linear(in_features=512, out_features=2048, bias=True)
              (fc2): Linear(in_features=2048, out_features=512, bias=True)
              (activation_fn): SiLU()
            )
            (self_attn_layer_norm): LayerNorm((512,), eps=1e-05, elementwise_affine=True)
            (cross_attn_layer_norm): LayerNorm((512,), eps=1e-05, elementwise_affine=True)
            (final_layer_norm): LayerNorm((512,), eps=1e-05, elementwise_affine=True)
          )
        )
      )
    )
  )
  (open_nn): OpenLayer(
    (embedding): Embedding(58101, 512, padding_idx=58100)
    (positional_encoding_src): Embedding(512, 512)
    (positional_encoding_tgt): Embedding(512, 512)
  )
  (close_nn): CloseLayer(
    (classifier): Linear(in_features=512, out_features=58101, bias=True)
  )
)
rank 1: len(list(model.parameters())) 806
rank 0: len(list(model.parameters())) 543
Epoch 0
Epoch 1
Fwd time encoder layer: 0.03131747245788574 seconds
Fwd time decoder layer: 0.0011250972747802734 seconds
Fwd time encoder layer: 0.0010309219360351562 seconds
Fwd time encoder layer: 0.0004925727844238281 seconds
Fwd time encoder layer: 0.0005116462707519531 seconds
…
